Lab_5/MLP_dress.pth (torch, 817905 bytes, 4 tensors)

weight f4 [256, 784]
000000 fd 99 fd 3c 94 6d db 3c 79 9b 12 bd 2b 8d 2d 3b
       0.030957216 0.02678565 -0.0357928 0.0026481848
000010 12 c6 57 3c 18 11 ea 3c c4 45 e1 bc 19 52 12 bd
       0.013169782 0.028572604 -0.027499087 -0.035722826
000020 20 44 8e 3b dc d5 14 bc 04 50 d3 bb ec 11 89 3c
       0.004341617 -0.009084191 -0.0064487476 0.016732179
000030 67 5b 74 3c 0c 9e 16 bc 93 55 b1 bc 94 aa 28 3a
       0.01491437 -0.009192955 -0.02164725 0.00064341095
000040 80 fa 19 bd 70 85 1a bd 07 1a fd 3c ca 30 ff 3c
       -0.03759241 -0.037724912 0.0308962 0.031151194
000050 27 83 d6 bb f3 1f 3c 3c 68 ef 37 bc e3 45 7c 3c
       -0.0065463963 0.011482227 -0.0112265125 0.015397522
000060 67 46 ff bc 77 c3 dc bc 68 08 92 bc d8 9a 9f 3c
       -0.0311615 -0.026948674 -0.017826274 0.019483015
000070 99 14 a2 3c 31 e5 9c 3c f7 56 36 bc 2c b2 f6 3a
       0.019785212 0.019152256 -0.0111291325 0.001882141
000080 21 f7 7b 39 29 d7 a3 3c 01 4c 8c bc 39 e1 e5 bb
       0.00024029288 0.020000057 -0.017126085 -0.007015374
000090 4f 4c 99 bc 07 ac 17 bd ec 3b 91 bc 73 ef 97 3c
       -0.018713145 -0.037029292 -0.017728768 0.018546795
0000a0 df 79 9a bb c4 88 bf 3c 69 af 1f bd 6c 9b c0 3c
       -0.004714235 0.023380645 -0.038985644 0.02351161
0000b0 aa 5b e3 bc 92 f6 c3 b9 a0 7f 55 3c eb b4 0d bd
       -0.02775367 -0.00037377008 0.013030916 -0.034596365
0000c0 39 68 a3 bb b7 2a 3c bc 38 4c 74 3c a8 d6 7f bc
       -0.0049867895 -0.011484793 0.01491075 -0.015615143
0000d0 95 f3 af bb d5 35 c0 bc 21 10 b5 bc 29 bb 93 3c
       -0.0053696134 -0.02346317 -0.022102417 0.01803358
0000e0 bf 77 cb 3c d1 8f 6f 3c 0e 10 f3 bc 7a 0e b7 bc
       0.024837373 0.014621691 -0.029670741 -0.02234577
0000f0 b3 73 af bc 2f b6 89 3c 2e 81 85 bc e5 10 f8 3b
       -0.021417474 0.016810505 -0.01629695 0.0075703734
000100 63 a7 0f bc fa d7 c6 ba 41 35 07 bd fe 0e 03 bc
       -0.008767935 -0.0015170567 -0.03300977 -0.00799918
000110 b0 ed 7e 3c 3b 8f 81 3c 6a 1a 5c 3c 50 6c 18 bc
       0.015559599 0.015815368 0.013434032 -0.009303167
000120 a7 08 1b bd 8d 0e b0 bb 6c 6d a0 bc cc a2 12 bd
       -0.03785005 -0.0053728283 -0.019583426 -0.035799786
000130 7b 5a 57 3c 9b 27 c0 bc b8 a8 27 bc db 6b d0 bc
       0.013144131 -0.023456385 -0.010233097 -0.025442054
000140 17 ba ed bb 8c 12 f9 39 86 1e 03 3c 88 e7 17 bd
       -0.0072548497 0.000475068 0.008002883 -0.03708604
000150 5f 2d 90 bb 9a 3b a8 3c f5 a0 96 3b 61 b8 c9 bb
       -0.00439994 0.020536233 0.0045968243 -0.006156013
000160 0d 0c 6e bc 94 8a 3c bc e8 68 9e 3c 47 c6 10 3c
       -0.01452924 -0.011507649 0.019337133 0.0088363355
000170 4f 28 8f 3c f9 4e 25 3c 0d 58 df bc 07 21 13 bd
       0.017475275 0.010089629 -0.027263666 -0.03592017
000180 04 d5 bd bc 4c 29 64 3c c6 97 dc bc 4d aa d8 bc
       -0.023172863 0.013925862 -0.02692784 -0.026448393
000190 d4 ed e0 bc 15 fb cf 3c 74 cd 02 3d 99 59 da 3c
       -0.027457155 0.02538828 0.031934217 0.026654052
0001a0 7c fa b7 bb 8c a9 e0 3c 3a 3f 56 3c 0d 25 69 bc
       -0.005614577 0.027424596 0.013076598 -0.014230025
0001b0 d6 40 a2 3c 63 37 ac 3c 53 0d cb ba 6b 6d 64 bc
       0.019806307 0.021022504 -0.0015491642 -0.013942103
0001c0 23 64 07 3d 05 0c a6 3b 36 0b 70 3c 61 6a fc 3c
       0.033054482 0.005067351 0.01465111 0.030812444
0001d0 cc 5a 5b bc 68 86 17 bd 0f 26 0b bd 9a d5 0b bd
       -0.013388347 -0.036993414 -0.033971842 -0.034139253
0001e0 6c 5c 89 3c 2e c1 16 bd 06 45 e3 bc af 7a 07 3c
       0.016767703 -0.036805324 -0.027742874 0.008268996
0001f0 67 28 d4 bc 76 7f 16 bd 21 01 1a bc a1 95 49 3c
       -0.025898172 -0.03674265 -0.009399683 0.012303741
000200 9f e1 cb bb 28 d3 ff bb 9d f5 ff 3c 1e 94 43 bc
       -0.0062219645 -0.007807154 0.031245047 -0.011937169
000210 6d 16 cb 3c c2 28 19 3a 1b b0 d0 bc d5 4f a2 3c
       0.024790967 0.000584256 -0.025474599 0.019813458
000220 42 6d dc bc 44 90 97 bb b4 e1 d1 3c 15 00 00 bd
       -0.026907567 -0.004625352 0.025620319 -0.03125008
000230 12 5c c5 3c a2 b2 a1 bc c2 3a 0c bd d5 18 9f 3c
       0.024091754 -0.0197385 -0.034235723 0.01942102
000240 38 1b 16 bd b9 66 ec 3b 04 a8 89 bb a7 75 22 3c
       -0.03664705 0.007214394 -0.004200937 0.009915746
000250 30 9a d0 bc ce ae ae 3c 6b 9f b6 3c f6 78 b4 bc
       -0.025464147 0.021323588 0.022292813 -0.022030335
000260 de bf 07 bc ff df 0b bd 53 c6 57 3c 4f ef d7 bc
       -0.008285491 -0.034149166 0.013169843 -0.026359228
000270 28 c8 9b bc d3 19 86 bc e0 97 9b 3c 00 39 e4 bc
       -0.01901634 -0.016369736 0.018993318 -0.027859211
000280 51 c6 14 3c bb 9b b6 bc a0 29 be bb 6a 8f 9b bb
       0.009080485 -0.022291055 -0.005803302 -0.004747321
000290 c0 fc 50 3c 40 1f ab bc d1 97 14 bd c6 77 21 bc
       0.012755573 -0.020888925 -0.036277596 -0.009855216
0002a0 3d 8a 92 ba 24 72 8d bc cc 89 69 3c 4d 46 53 bc
       -0.0011180114 -0.01726634 0.014254045 -0.012895179
0002b0 d4 c4 70 bc b7 cf 00 bd a6 03 8b 3c f3 a5 b4 3c
       -0.014695365 -0.031448092 0.016969513 0.022051787
0002c0 5b e8 ab bc 0f 37 aa 3b ca 87 02 3d 9a 31 44 bc
       -0.02098482 0.005194552 0.03186778 -0.011974717
0002d0 c2 51 f5 bc 38 f5 a0 b8 73 79 12 bd 1e cf ab bc
       -0.029946212 -7.67507e-05 -0.035760354 -0.020972785
0002e0 28 6c 0a 3b 14 44 dc bc fb e3 44 b9 4a 9c bd bc
       0.0021121595 -0.02688793 -0.00018776946 -0.023145813
0002f0 d1 3d cb bc 80 8c 58 bb b7 b0 07 3b f6 cd dc 3c
       -0.02480975 -0.003304273 0.0020704695 0.026953679
000300 b4 98 03 bd 8d 60 cb 3b b4 4b 79 bc 73 3b 7d bb
       -0.03212805 0.006206578 -0.015215803 -0.003864017
000310 fe 6c c2 3c 3b 74 ad 3c 2f 03 87 bc a4 37 fc 3c
       0.023733612 0.021173587 -0.01648101 0.03078825
000320 cf 04 a3 bc 86 a9 b8 bc 0e 5f f2 3b cf d7 2c bc
       -0.019899754 -0.022541773 0.0073965853 -0.0105495
000330 4c 1b 84 bb 6c 3f 17 bd 03 fd a6 3c 35 c6 4a 3c
       -0.0040315744 -0.03692572 0.020384317 0.012376358
000340 08 32 df b9 8e 5e 62 bc de 9f 08 bd ca 05 55 bc
       -0.0004257115 -0.013816489 -0.033355586 -0.0130018685
000350 36 88 99 3c 6b 2d e0 3b 9e 21 a6 3b aa 94 10 bd
       0.018741708 0.0068413517 0.0050699254 -0.035298027
000360 16 8d 5b bc 64 4b 9e bc 0b 6c 97 bc 6d 79 64 ba
       -0.013400337 -0.019323058 -0.018484136 -0.00087156036
000370 41 89 9c bc f7 a2 b9 3c 2f 84 81 3c b6 81 a2 bc
       -0.019108417 0.022660716 0.0158101 -0.019837242
000380 40 8b de bc 8e 9e 17 3b 7d 72 08 bd 4c 06 cc bb
       -0.027166009 0.0023135277 -0.03331231 -0.0062263366
000390 1d ed 6a 3b d2 c3 e1 3c 8c a9 1a bc 82 59 97 bb
       0.0035846897 0.027559195 -0.009439837 -0.0046188245
0003a0 be 19 97 3c b9 85 81 bc 28 81 9a 3c 2f 85 05 3d
       0.018444892 -0.015810834 0.018860415 0.032597717
0003b0 4e 76 fd bb 61 70 f7 bc 69 35 5c 3c df be 74 3c
       -0.0077350503 -0.030204954 0.013440468 0.014938085
0003c0 20 0e 0a bd aa 8c 3b bc 51 a1 50 3c 85 f3 ce bc
       -0.033704877 -0.011447111 0.012733773 -0.025262604
0003d0 03 60 f0 3b 2d 11 1b bd 29 63 69 3c d8 ba c1 3c
       0.0073356642 -0.037858177 0.014244833 0.023648664
0003e0 a3 bc 19 3b 58 9b 2f 3b 4a c1 c1 bc ba 2b 86 bc
       0.0023458384 0.0026795473 -0.023651738 -0.016378272
0003f0 82 f2 ba 3c be 56 be 3c c9 08 1d 3c d2 f8 47 3b
       0.022820715 0.023234721 0.009584614 0.0030513299

bias f4 [256]
000000 56 6f ff ba 18 f0 e9 3c 2b 24 20 bc e3 d8 2c 3c
       -0.0019488137 0.028556868 -0.009774248 0.010549757
000010 d6 6b 3d 3c 05 49 a5 bc 0b e6 03 3d f2 a4 43 bb
       0.011561355 -0.02017642 0.032201808 -0.0029852954
000020 a5 c9 82 3c 4e ad 13 3c 4f e1 95 bc 78 da e9 3a
       0.015965292 0.009013487 -0.018295912 0.0017841598
000030 53 e4 84 3c 4f ad 64 3c cf c5 89 bc 1f df 0c 3b
       0.016222155 0.013957336 -0.016817955 0.0021495295
000040 f3 c5 e6 39 b1 09 fd bb eb 90 df 3c 2b 9a 58 3c
       0.00044016502 -0.0077221026 0.027290782 0.01322035
000050 48 a2 c0 bc 85 e6 da 3c a9 ad ac bc a3 20 a2 3c
       -0.023514882 0.026721248 -0.021078901 0.019790953
000060 a1 db 76 bc 17 de 80 3c ff c3 f1 3c 84 51 5e bc
       -0.015067012 0.0157309 0.029512404 -0.0135692395
000070 cc d2 8e 3c da 14 b9 3a 0a fb 26 3c b8 bf b5 3c
       0.0174345 0.0014120594 0.010191688 0.022186145
000080 3d 62 cb bb 04 0a 94 3c 9d 93 a7 bb dd 6e 68 bc
       -0.0062067793 0.018071182 -0.0051140324 -0.014186588
000090 63 2f a8 3c 91 d4 14 bc 73 ca 85 3c 15 af e8 bc
       0.020530408 -0.009083883 0.016331887 -0.028403798
0000a0 ad a0 0f 3d 93 e6 ce 3c 8a 32 46 bc 24 df 05 3d
       0.03506534 0.02525643 -0.01209701 0.032683507
0000b0 da fa cb bc b8 bb 86 bc 01 eb ed 3c 9e 18 0a 3d
       -0.024899889 -0.016446933 0.029042723 0.033714883
0000c0 78 b7 9d 3c c8 93 31 3c 07 d8 73 bc 39 23 e2 bc
       0.019252524 0.010838456 -0.014883048 -0.027604686
0000d0 12 7c e0 3c a5 63 04 3d 13 9c a9 3c d3 08 d6 3b
       0.027402911 0.03232159 0.020704305 0.0065318136
0000e0 3c c0 c2 bc d7 88 ac bc 42 24 72 3b 8c 6c ec bc
       -0.023773305 -0.021061344 0.003694788 -0.028860353
0000f0 8c f9 a3 3c de 24 a0 bc 65 e9 bf 3c bf 68 d0 3c
       0.020016454 -0.01954883 0.02342672 0.025440572
000100 90 2e 03 bd ef f8 02 3d 16 d2 de 3b d2 97 85 3c
       -0.032026827 0.031975683 0.0067999465 0.016307745
000110 f7 7a 25 bc 04 fd f1 3b 80 31 02 3d 90 a4 f3 3b
       -0.010100118 0.007384898 0.031785488 0.007435389
000120 e6 3f 08 bd 74 4d 93 bc f8 75 0e 3d 81 a7 33 3c
       -0.033264063 -0.017981268 0.034780473 0.010965229
000130 54 23 91 3b 7c 39 db 3c 70 10 72 3b 3f 5d ed 3c
       0.0044292603 0.02676081 0.0036936067 0.028975127
000140 99 ac 9d 3c 3c f3 9d 3c c9 7d 3d bb a9 1e ce bc
       0.01924734 0.019281022 -0.0028914085 -0.025161104
000150 61 78 67 3c 7e 32 ca 3c 66 f9 5d bc a7 e9 ed bb
       0.014127822 0.02468228 -0.013548231 -0.0072605195
000160 70 fc f4 3c 43 d7 9a 3b e3 98 07 3d e6 e9 05 bc
       0.029905528 0.004725368 0.03310479 -0.0081734415
000170 c8 c8 3f bc 40 3a cb bc f6 0a a9 bb 37 85 2c 3c
       -0.011705585 -0.02480805 -0.0051587773 0.010529808
000180 0d 2c cd 3b fc 63 ef 3c 7a 8b 5d bc 7b 8b 15 bc
       0.006261355 0.029222481 -0.013522023 -0.009127493
000190 3d ac e9 bb 35 16 b2 3c 53 ae 65 bc 0b 63 dd bc
       -0.007131128 0.021739105 -0.014018613 -0.027024766
0001a0 4b d1 9a bc c3 44 a7 bc 15 50 bd bc 2f bd 3b bc
       -0.018898627 -0.02041853 -0.023109475 -0.011458679
0001b0 bc 24 18 bc 88 74 89 bc 96 cd de bc 1b 87 e0 3c
       -0.009286102 -0.0167792 -0.02719764 0.027408173
0001c0 00 b6 9a bc fb f8 0b bc 77 5e ba ba 9b 27 00 bb
       -0.018885612 -0.008543248 -0.0014218827 -0.0019554857
0001d0 7b 51 eb 3c 98 14 f9 bc bf f4 cd bb 7c 43 04 3d
       0.028725376 -0.030405328 -0.0062852795 0.03229092
0001e0 ed 39 bd bb 7d 6d 5c 3b 35 56 e0 bc 2d 2c 20 bc
       -0.0057747276 0.0033634596 -0.027384857 -0.009776157
0001f0 b9 3a fd 3c 08 82 a2 3c ee c4 8c 3c 1a 09 ee bc
       0.03091179 0.019837394 0.017183747 -0.029057074
000200 ae b2 d9 3c 90 0d 19 ba b9 01 01 3d 74 72 0b bd
       0.026574459 -0.0005838508 0.031495783 -0.034044698
000210 b5 e3 1c 3d fe 83 32 3c ad 87 f8 3c eb b2 1a 3b
       0.038303096 0.010895727 0.030338133 0.0023605179
000220 98 76 d5 3a c3 4e 8c bc 90 aa 39 bc 6a 17 17 3c
       0.0016285954 -0.0171274 -0.011332169 0.009221891
000230 52 31 03 3d b8 88 34 3c 09 6c b2 3c a0 ff 10 bb
       0.032029457 0.011018924 0.02178003 -0.002212502
000240 83 67 90 bc d8 c8 ca bc c9 4e a6 3c 56 f7 0e bd
       -0.017627483 -0.024753973 0.02030124 -0.034903847
000250 3d f5 1d 3c 43 b5 b8 bb 60 2e be 3c a0 d5 7c ba
       0.009640989 -0.0056368425 0.023215473 -0.000964487
000260 0d 9e f7 3c d6 b9 11 3d 66 62 62 3c 8f 1f c6 bc
       0.030226732 0.035577618 0.013817405 -0.02418497
000270 32 d1 b2 bc db b1 13 3d dc 14 75 bc bd 05 2d 3b
       -0.021828268 0.036058288 -0.014958587 0.0026401125
000280 43 e6 d9 3c 89 ff 06 3d bd b5 ad bb 3f eb 0d 3d
       0.026599055 0.03295854 -0.005301206 0.034648176
000290 69 de 36 3c ca a7 9b bb 6f df 71 3c bf ab d1 bc
       0.011161425 -0.0047502266 0.014762743 -0.02559459
0002a0 81 87 83 bc 18 1c ad 3c 53 a0 9c bc 22 17 c6 3c
       -0.016055824 0.02113156 -0.019119417 0.024180952
0002b0 44 aa 8b 3c 64 0c 34 bc 8b c5 ef 3b a1 c7 00 bc
       0.017048962 -0.010989282 0.00731725 -0.007860095
0002c0 22 ee c0 3c 15 6c cf bc a9 1d 05 3d 0d 49 da bc
       0.02355105 -0.025320092 0.03249899 -0.026646161
0002d0 39 40 c0 bc 11 a3 f1 3c 92 fd 9d 3c d4 83 88 bc
       -0.023468124 0.029496701 0.01928595 -0.016664423
0002e0 8a 0b b9 bc 02 9d 92 3c 4f 87 b8 39 62 15 45 3c
       -0.02258851 0.017897133 0.00035196028 0.012029024
0002f0 6e 26 2e bb d5 28 cf bc fd 0f 2e 3b f6 e6 05 bd
       -0.00265732 -0.025288025 0.0026559823 -0.032690965
000300 14 f1 e8 bc 15 e2 0b 3d 33 06 52 3a 53 cc e8 3c
       -0.028435268 0.034151156 0.0008011788 0.028417742
000310 fa a2 ee bc b8 fe 49 3c a4 6c 13 3d 86 62 ed 3c
       -0.029130448 0.012328796 0.03599228 0.028977644
000320 ba e2 98 3c e9 46 e3 bb 5e 4d 11 3d 2f d3 c9 3a
       0.0186628 -0.0069359434 0.035474174 0.0015398021
000330 d3 72 7b 3c 87 7a df 3b be 45 87 bb 3f 14 d0 bb
       0.0153472 0.0068200263 -0.004128187 -0.00635007
000340 97 c3 91 3c 95 74 94 bc a2 be 68 bc 25 5c 9c 3c
       0.01779346 -0.018121997 -0.014205607 0.019086907
000350 26 77 11 bd 8d 32 0a bd b0 6b 0d 3c 79 d7 d6 bb
       -0.03551402 -0.033739615 0.008631632 -0.006556448
000360 9d 0e d2 bb 56 12 97 bc 21 c3 be ba 4f 68 0a 3c
       -0.0064104334 -0.01844136 -0.0014554003 0.008447721
000370 2f e7 09 3d 0a 90 10 3d ed 5c 6f 3c 9c b2 79 bc
       0.03366774 0.035293616 0.014609558 -0.015240338
000380 66 60 82 bc c0 53 b6 3c f3 24 ff ba 73 89 63 ba
       -0.015915107 0.022256732 -0.0019465968 -0.00086798443
000390 e1 d9 86 bc ce 31 cb 3c ea 45 7c 3a a1 3b b6 bc
       -0.016461315 0.024804022 0.0009623455 -0.02224523
0003a0 c2 d0 82 3c b2 f9 d5 bc e8 a6 fe 3c 7f 2f 21 3d
       0.015968684 -0.02612004 0.031085446 0.039351936
0003b0 4e 36 ff 3b 14 f0 19 ba 17 0a 87 3c ca 04 58 bb
       0.007788456 -0.0005872261 0.016484303 -0.003296184
0003c0 4c 03 24 3c 41 91 80 3c 54 23 83 bc 9a 2a f6 bc
       0.010010552 0.015694262 -0.016008057 -0.03004961
0003d0 c8 42 c6 3b 3e cd df 3c 8a 88 b8 bb 96 a8 71 3c
       0.0060504414 0.027319547 -0.005631511 0.014749667
0003e0 9c 5e 2c bc 91 53 b7 3b b6 b7 60 bc 3f bd 69 bc
       -0.0105206035 0.0055946787 -0.013715675 -0.014266311
0003f0 62 5f 2c bc 56 c0 db bc fd 1a e0 3c 5a 2d 7f 3c
       -0.010520788 -0.026825111 0.027356619 0.0155747775

weight f4 [10, 256]
000000 89 59 e0 bc b6 4c 96 bd 4d 08 ff bc 20 30 22 bd
       -0.027386444 -0.0733885 -0.031131888 -0.039596677
000010 0c e7 13 bb 2a f2 51 bd 2b f0 76 3d 8e a3 4f bd
       -0.0022568135 -0.051256336 0.060287636 -0.050693087
000020 56 2c 92 3d 32 c9 25 3a f9 bf 95 3b 1e 35 c5 3d
       0.07137363 0.0006324231 0.004570004 0.09629272
000030 64 2c ab bd df 11 a8 3c fb 93 65 bd 39 91 6e 3d
       -0.08358076 0.020516334 -0.05604933 0.058243964
000040 f6 d6 9b 3c 0b ff 55 3d 1b 6f 14 3d 3a 1d d6 3d
       0.0190234 0.05224518 0.03623877 0.10454793
000050 9e fc 92 bd f8 65 dc 3b e2 d9 25 bd 8f 27 01 3d
       -0.07177089 0.006726023 -0.040490992 0.031531867
000060 4e e3 56 bd 8c 1e be 3d f6 bf 95 bd 82 a8 0c 3c
       -0.05246287 0.0928317 -0.07312004 0.008585097
000070 02 28 03 be fd 3d 3e bd 02 95 e6 38 7a 3c de bc
       -0.1280823 -0.046445835 0.000109950095 -0.027128447
000080 36 c6 b3 bc 2f c6 6b bd 30 36 29 bd 98 83 09 3e
       -0.0219451 -0.05756205 -0.041311443 0.13429105
000090 e2 ca fa 3c d9 51 0b bd 80 27 72 3d 4c 61 a3 bb
       0.03061432 -0.034013603 0.0591197 -0.004985964
0000a0 7e de 28 3d 17 07 79 bc 6c 85 ee 3b f9 3c 5e bd
       0.04122781 -0.015199444 0.0072790887 -0.054257367
0000b0 35 ce 14 bd a2 ed 23 3c 56 54 77 bd e9 55 a0 3d
       -0.036329467 0.010005387 -0.060383163 0.07828886
0000c0 23 1d 9e bd 4d 63 26 bd b8 22 92 bc 50 c6 f8 bc
       -0.07720401 -0.040622044 -0.01783882 -0.030368
0000d0 9a 41 e9 bc 57 6a 32 3c 17 fa 27 bd 33 3f e7 bc
       -0.028473664 0.010889611 -0.04100999 -0.028228378
0000e0 a3 42 2e 3d 5b 71 2a 3d 9a 79 88 3d 2c 79 58 bd
       0.04254402 0.04161201 0.06663819 -0.052849934
0000f0 30 73 bd 3d 5d 60 fb bc 1a 0e 72 bd 9e ea 3d bc
       0.09250486 -0.030685598 -0.05909548 -0.011591582
000100 37 54 bc 3c 4d f0 2a 3d 71 e9 4c 3d 1b 95 06 bd
       0.022989376 0.041733075 0.050027315 -0.03285704
000110 f6 20 ae ba cb 0e c0 3d 3a b0 31 3d 3f 51 9c bc
       -0.001328497 0.093778215 0.043380953 -0.01908171
000120 74 19 04 bb ea f2 2a 3d 96 0d 14 bd ec 1a ba bc
       -0.0020156773 0.041735567 -0.03614577 -0.022717915
000130 83 24 59 bd f4 17 33 3d bf 75 98 bd 00 6c 01 3c
       -0.053013336 0.043724015 -0.07444333 0.007899284
000140 e2 0c 00 3b f2 87 bd 3c 83 44 92 3c 6a af 0b bd
       0.0019538929 0.023136113 0.017854935 -0.034102835
000150 4d a4 06 bd 05 ab eb 3d 51 c8 83 bd 73 e0 da 3d
       -0.032871533 0.11507229 -0.06434692 0.106873415
000160 67 98 ef bd 92 15 26 3d b4 c2 68 3d 1e 56 49 3c
       -0.1169899 0.040547915 0.05682631 0.012288598
000170 f4 b7 aa 3c 75 43 80 bc 5d 6d 4a 3d 6c e1 36 bd
       0.020839669 -0.015657166 0.049420703 -0.044648573
000180 0d c5 80 3c da d8 8a 3d 9f e6 b3 bc 5b b5 fa bc
       0.015718961 0.067796424 -0.021960555 -0.030604055
000190 f0 b4 b9 3c 38 80 06 3e 62 d7 54 3d 9d 0d 9c 3d
       0.022669286 0.13134849 0.051963218 0.07619784
0001a0 13 64 ac 3c 08 c6 69 bd fd b6 92 3d ce 9f c9 3d
       0.021043813 -0.057073623 0.071638085 0.098449335
0001b0 95 fa 43 3d 63 e5 51 bd 48 72 8a bc 0b 49 68 3c
       0.047846396 -0.05124415 -0.016900197 0.014177571
0001c0 74 3e c3 bc 4b f1 b8 bd 95 0f e9 3c d9 31 0b 3c
       -0.02383349 -0.09030398 0.028449813 0.008495771
0001d0 40 8b 80 3d 6b db b9 3c 0c f4 85 bd 3b 8b c3 bd
       0.0627656 0.022687634 -0.06540689 -0.095480405
0001e0 09 0b e2 bb 3b c4 87 bd f4 a3 40 3d 69 17 2e bd
       -0.006898288 -0.06629225 0.047031358 -0.042502794
0001f0 0a e4 02 bd 02 fd d1 3c d4 0a 71 bd ad d2 80 3b
       -0.031955756 0.025633339 -0.058848217 0.0039313645
000200 49 c0 17 bd 44 a0 1c bd 06 51 6c 3b b3 85 98 bd
       -0.03704861 -0.03823878 0.0036059036 -0.07447376
000210 c8 82 24 3c 6d e2 26 3d 3e 10 cb bb 60 33 ef bc
       0.010040946 0.04074328 -0.0061970046 -0.029199302
000220 81 bd eb bd 73 f3 42 bd 0a 80 0b bc 12 ac 46 bd
       -0.115107544 -0.047595453 -0.008514414 -0.048503943
000230 b2 90 3d bd 6f ad 34 bd 1e e7 15 3d 9e 49 44 3d
       -0.04628057 -0.04411071 0.036597364 0.04792177
000240 47 fb 82 3d 7d 74 d3 bd 00 80 60 3d ab 14 ff bb
       0.063955836 -0.10324953 0.05480957 -0.0077844462
000250 35 94 2a bc ef 9b 1e 3d 2b 2a a3 bc bc 8c 96 3d
       -0.010411312 0.03872293 -0.019917568 0.07351062
000260 79 f9 c2 3c 09 f0 83 bd 75 da a3 bd b3 45 b0 3b
       0.023800598 -0.064422674 -0.08000652 0.0053794025
000270 75 38 62 3d 3d 2e 59 bd 2b d1 48 3c 4f b8 95 bd
       0.055229623 -0.053022612 0.012256901 -0.07310545
000280 c8 3d eb bc ac 55 a6 bd ca ab ce bc a9 d8 13 3d
       -0.028715983 -0.08121809 -0.0252284 0.036095295
000290 be 54 1e 3c 10 0c 23 3e fb 23 24 bd 57 ed 9f bd
       0.009663759 0.1592257 -0.040073376 -0.07808941
0002a0 c8 fa e4 bc fe 68 4a bd 46 cd 4c 3b 8d f6 fd bc
       -0.027951613 -0.049416535 0.0031250282 -0.031001354
0002b0 d0 f3 39 bd a3 fb 06 3c d1 50 93 3d bc 89 c8 3d
       -0.045398533 0.008238706 0.07193149 0.09791896
0002c0 42 90 90 bd 6c 25 da 3d f9 60 93 bd d4 e6 32 3d
       -0.07058765 0.10651669 -0.071962304 0.043677166
0002d0 75 3e 0a 3d 3c 4b cd bc 8f f6 15 3d 94 3b 00 bd
       0.03375097 -0.025060289 0.03661209 -0.031306818
0002e0 6e fe 79 bd 6e 2f bf bc 6b e6 41 bd c4 46 05 bd
       -0.06103366 -0.023338046 -0.047338884 -0.03253819
0002f0 1b 90 c7 bc d8 36 57 bc b4 b8 1c 3d 0e 55 c4 bd
       -0.024360707 -0.013135634 0.038262084 -0.095865354
000300 45 bd d7 3d ef 97 59 3d d1 6b 9a 3b 1f 00 b0 bd
       0.10534147 0.05312341 0.0047125597 -0.08593773
000310 f5 83 11 3d 6f 3a c7 3d 8b 3d 1c bd 0b 8b 9d bc
       0.035526235 0.09727942 -0.03814463 -0.01923134
000320 ed 7a a1 bd c4 28 8b bb 34 95 18 3d f1 c3 0d bd
       -0.07884774 -0.004246803 0.037251666 -0.034610692
000330 c9 03 85 bd ca 80 9d 39 50 2f d6 3d 1d bf 51 3d
       -0.064948626 0.0003004133 0.10458243 0.05120765
000340 2a 84 bf bb a0 d1 09 bd 39 f7 04 3d 54 61 9d 3d
       -0.0058446126 -0.03364718 0.032462332 0.076845795
000350 0a 17 22 bd c0 69 40 bc 62 15 32 3d 49 a9 cd 3d
       -0.039572753 -0.011743963 0.043477423 0.10042054
000360 9d c2 eb 3b b1 c0 d5 3b ff d4 6a bd ec 99 b3 bc
       0.0071948306 0.0065232147 -0.057332035 -0.021923982
000370 de 3a a4 bd 98 7c 0d 3c e0 97 8c 3c 50 86 49 bd
       -0.080190405 0.0086356625 0.017162263 -0.049200356
000380 ed 0f 48 bb 56 ca 5e bd 30 50 c3 3d 50 e2 8e bd
       -0.003052707 -0.05439218 0.09536779 -0.069767594
000390 a8 a7 9a bd fa c4 78 bc f3 56 ab b9 fd a0 09 3d
       -0.07551509 -0.015183682 -0.00032680444 0.033600796
0003a0 64 6c 2c bd 6b f2 42 3c 9a 5b b7 bd 22 7f 02 3e
       -0.042095557 0.011898617 -0.089530185 0.1274381
0003b0 91 11 61 3d 4c a8 28 bd 15 07 01 bd ff d2 87 bd
       0.054948393 -0.041176125 -0.031500895 -0.06632041
0003c0 c6 ea 85 bd a2 8d 64 3d 72 3c 0a bd 86 83 7b bd
       -0.0653892 0.055799134 -0.03374905 -0.061404727
0003d0 d0 e6 32 bd 39 60 c2 3c da fc 76 39 75 ec 75 bd
       -0.04367715 0.023727523 0.00023554583 -0.060039956
0003e0 29 83 ca 3c 63 76 7c bd 06 76 78 3c c6 cb 06 3e
       0.024720745 -0.06163634 0.015164858 0.13163671
0003f0 be e5 14 3c 64 8f 62 3d 32 4e 8e 3c 96 a2 85 bc
       0.009087978 0.05531253 0.01737127 -0.016312879

bias f4 [10]
000000 50 f0 25 3d 58 3a 69 bc 4c 5b 92 3d 74 af 41 bd
       0.040512383 -0.014235102 0.0714632 -0.047286466
000010 0f 71 f8 bc 88 51 a3 bb c6 66 7a bb e6 50 10 3d
       -0.030327348 -0.0049840845 -0.003820823 0.0352334
000020 a5 d0 6a 3d 37 ff 4e bd
       0.057327885 -0.05053636
